mnist-feedforward.pth (torch, 103263 bytes, 4 tensors)

linear1.weight f4 [32, 784]
00000000: 08c1 b93b 184e a13b 76d9 e93c 6bbb 09bd
00000010: 906d da3b bccc 73bc d49d afbb 04e1 04bd
00000020: c63b 49bc 7e39 b33c 184c cc3c e881 f43b
00000030: b8bc e73c 859f 023c b964 c53b 6fa1 2abb
00000040: 4567 013d fe13 c43c 31c9 003d 89af 0c3d
00000050: 0034 86bc e0f4 1a3b 88ef b3bb e939 023d
00000060: 3021 8a3c 74a3 483c f0fa e5bb 28d1 ce3c
00000070: baf3 adbc f14f 103d 5700 0ebd 18a4 78bc
00000080: b0a5 3cbb 0a30 c13c e602 33bc 20d3 a7bc
00000090: 33ab 02bd 1787 9abc 9abd f8bb 68fd c3bb
000000a0: cc4a d63c a324 023d 0ede c83c 9139 efbc
000000b0: 534a 393d b305 e73c 6d0a e3bc 5228 1cbd
000000c0: 179c 8cbb 5484 9039 4b9a c7bc d07a 5ebb
000000d0: 781b 07bd d133 123d 206b 65bc 0a93 bbbc
000000e0: 91cc e4bc 1c2e c3bc 8c66 e5bc 241d c03b
000000f0: 0939 ed3c 1efb f3b9 1162 15bd fd6f fd3c
00000100: b135 a1bc d034 1dbd 2800 38bd 0dd8 3ebd
00000110: 48bc 393c 6d6d a8bd 3b93 b9bd d9b9 5abd
00000120: 8132 94bd 9e72 d4bc 6541 7fbd 2fdd 54bd
00000130: 0b88 65bd b8c7 353b 0e40 6b3c adc6 193c
00000140: 9e3b 05bc fec9 9e3c 8e9f e73c ee9d 4abc
00000150: ce88 993c 9b53 053d de20 123d 02cb 143d
00000160: c96a 91ba 2680 0e3c 3db8 7cbd dfdb c0bc
00000170: 2ce7 b3bc 53c4 8bbd 052a 60bd 3d1f 84bd
00000180: f2df a7bb df0c 85bc 1311 28bd bd58 aabd
00000190: 74fd 25bd db6a 59bc 68ef f4bd 0fe9 bdbd
000001a0: ecd1 c8bd 32fe 98bd bd11 5cbc 0eaa 5abd
000001b0: 1ab1 043b 28d0 47bc 1b04 543b 6490 8f3c
000001c0: f8d3 98bb ae0b 15bc 5a2b cd3c 45dd a7bb
000001d0: b595 69bc c6d5 49bb 0ed4 35bd 0af3 d4bc
000001e0: b5e2 b7bd 5682 0dbd 9307 33bd b4da 843c
000001f0: ab0d b93c 362c cdbc ee89 7abd 5e74 073c
00000200: 2032 97bd aa22 07be aad2 26be 96dc 7dbe
00000210: 4b51 64be 74d3 0fbe ff27 0fbe db55 aabd
00000220: e1ed 09bc 7374 1cbd 7b47 cc3c 8a76 a9bb
00000230: d819 bfbc b0cd 673c e15d 213b 1acb d5bc
00000240: 8c30 f63b c2d5 4fbc 20dd 32bc c47e bd3b
00000250: 49be 673d 2764 dc3d e22e 2a3d 44b1 1e3e
00000260: 6da7 ab3d a640 053e 5174 073d ec1c 0fbe
00000270: c58b 92be a494 c5be 7ba1 bdbe 8b08 b0be
00000280: ab23 b5be 255b 73be 7a55 3ebe 3ce9 1dbe
00000290: d33b c0bd 8455 2f3c c8da b73c 9861 28bc
000002a0: 661f 22bc 0f66 dc3c e400 f43c 2fd2 5abc
000002b0: 3982 bcbc c8c1 97ba 95aa 3c3d d521 5f3d
000002c0: d180 fe3d e503 f93d 1ac9 463e c163 4e3e
000002d0: e13f 063e 4eea 053e cfe6 1f3e 8426 4a3d
000002e0: 7732 90bd aff2 2ebd 7218 51bd 285a a5bd
000002f0: cfea 07be 4ef9 e83c 9d57 55bd ec5e debd
00000300: d975 74bd beed f9bc c0cf b0bc 2e7f 63bc
00000310: 9ffe 0dbb 3413 fcbc 8d13 f9bb 3772 c53b
00000320: ffac 51bc dac7 8c3c f1ed be3c 600a 6f3c
00000330: 10d1 063e 2426 173e 9748 4e3e b08f 513e
00000340: 4ea9 8c3e 481b 8b3e cb4f 353e 1068 893e
00000350: 4092 7b3e b415 ae3e 3a5e 353e 641c fe3d
00000360: bcea f03d 0d12 143e 790b e63d dd11 6bbb
00000370: 0b4f 8cbb 70bb ffbc 2fc2 ecbc 6b7b cebc
00000380: a8c1 b6bc b773 c93a f759 3b3d ee86 b63c
00000390: 442a 98bc 1a3c 8b3c fff1 a1bb 69ba 823b
000003a0: a803 a33d 6ce8 bf3d c6aa 053e a0d0 123e
000003b0: b752 933e 1177 373e 1add b43e 642a d83e
000003c0: b332 093f b02e a83e b8ab 5b3e f298 553e
000003d0: a97f 233e 43ba 393e f2f9 e03d b3bf e93d
000003e0: 3226 0b3d 2c5c 1abc 40d9 e0bc 9841 13bd
000003f0: f6be 7bbc aabe 9f3c 5215 883c 740d 26bc
0.005668763 0.0049226396 0.028546076 -0.033626 0.006665893 -0.014880355 -0.0053593908 -0.032441154
-0.0122823175 0.021878 0.024938628 0.007461775 0.02828823 0.007972603 0.00602397 -0.0026036163
0.031592626 0.023935314 0.03144187 0.03434709 -0.016382217 0.0023644492 -0.005491201 0.03179351
0.016861528 0.0122460015 -0.0070184395 0.025246218 -0.021234382 0.035232488 -0.034668293 -0.015175842
-0.002878528 0.023582477 -0.010925984 -0.020486414 -0.03190155 -0.018863244 -0.0075909616 -0.005981136
0.026158713 0.03177322 0.024519946 -0.029202254 0.045236897 0.02820096 -0.027714932 -0.03812439
-0.0042910683 0.00027564412 -0.024365565 -0.0033947714 -0.03298518 0.035693947 -0.014002591 -0.022897262
-0.027929576 -0.023825698 -0.028003 0.005862849 0.02895786 -0.0004653567 -0.036470477 0.03093719
-0.019678922 -0.038380444 -0.044922024 -0.04659276 0.011336394 -0.08223996 -0.09061285 -0.053399894
-0.07236195 -0.02593356 -0.062318224 -0.05196875 -0.056037944 0.002773745 0.014358534 0.009385747
-0.00813189 0.019383427 0.028274324 -0.012366755 0.018741991 0.032550436 0.035675876 0.036326416
-0.0011094447 0.008697545 -0.06169914 -0.023542343 -0.021960817 -0.06824555 -0.054727573 -0.06451271
-0.005123132 -0.016241489 -0.04103191 -0.08317707 -0.040524915 -0.013270105 -0.119597256 -0.09272968
-0.098056644 -0.07470359 -0.0134319635 -0.053384833 0.0020247162 -0.012195624 0.003235108 0.017524906
-0.0046639405 -0.009097023 0.025045086 -0.005122813 -0.014256884 -0.0030797585 -0.044391684 -0.025994796
-0.08978788 -0.034548126 -0.043708395 0.016217567 0.022589525 -0.025045495 -0.061166696 0.00826749
-0.073826075 -0.13196817 -0.162913 -0.24791178 -0.22296636 -0.14045507 -0.13980101 -0.08317157
-0.008418531 -0.038196992 0.024936428 -0.0051716017 -0.023327753 0.014148161 0.0024622607 -0.026097823
0.0075131115 -0.012685241 -0.010916978 0.005782934 0.056577954 0.1076129 0.041548617 0.15497309
0.08381543 0.13012943 0.033069912 -0.13975877 -0.2862226 -0.38589966 -0.37037262 -0.34381518
-0.35378775 -0.23765238 -0.18587294 -0.15421003 -0.093864106 0.010701541 0.02244319 -0.010277174
-0.009895181 0.026904134 0.029785581 -0.013355776 -0.023011314 -0.0011578137 0.046061117 0.054475624
0.124269135 0.12158946 0.19412652 0.2015524 0.13110305 0.13077661 0.1561539 0.049353138
-0.070408754 -0.04271191 -0.051048703 -0.080738366 -0.13273166 0.02843919 -0.052085508 -0.10857949
-0.0596827 -0.030508872 -0.021583438 -0.0138853025 -0.0021666659 -0.030770876 -0.0076012076 0.0060255784
-0.012797593 0.01718514 0.023306819 0.014589876 0.13165689 0.14760643 0.20144878 0.20464969
0.2747292 0.2716925 0.1770622 0.26837206 0.24567509 0.34000933 0.17711726 0.12407759
0.11763522 0.14460011 0.11232657 -0.0035868802 -0.0042818836 -0.031217307 -0.028901188 -0.025205335
-0.02230914 0.0015369569 0.045740094 0.022281136 -0.018574841 0.016996432 -0.0049421783 0.003989507
0.07959682 0.09370503 0.13053426 0.14337397 0.28774044 0.17916514 0.35324937 0.4221984
0.53592986 0.3284812 0.21452224 0.20859125 0.15966667 0.1813746 0.10985173 0.11413517
0.033971973 -0.00942139 -0.027447343 -0.035951227 -0.015365353 0.019500095 0.016611729 -0.010135043

linear1.bias f4 [32]
00000000: 49c5 433e 9a0b 3a3e 4a9b 69bd 56fc 92bd
00000010: a1fb 913d 6fce ae3d 3ca3 0bbe 4384 45be
00000020: 4897 f6bd 5116 293e c4cd cc3d 1793 bf3e
00000030: 5c8d 86be fa45 853d 41fd cb3e 1792 77be
00000040: 6cb2 3d3e b18a b83e 8e4d 35be 508c fb3c
00000050: e1d2 643d 8b7d 59bd 31c0 e5bd 217d 9dbe
00000060: 4390 523f 2be0 6c3e 0f4e 5e3e 55ba 583e
00000070: c732 8f3e fb49 233e 4e1b 2b3e 14d7 d33d
0.19118227 0.18168488 -0.05703286 -0.071770355 0.071280725 0.08535468 -0.13636488 -0.19288735
-0.12040573 0.1651242 0.10000184 0.37416908 -0.26279724 0.065074876 0.39841655 -0.24176823
0.18525094 0.36043313 -0.17705366 0.030706555 0.055865172 -0.053098243 -0.11218298 -0.30759528
0.82251376 0.23132388 0.21709464 0.2116483 0.27968428 0.1594619 0.16709635 0.10343757

linear2.weight f4 [10, 32]
00000000: a4a1 383f b09d 7ebf 76a5 d0be b173 863e
00000010: 23cc 853e 3ba6 26bf 041f d63d 837e 563f
00000020: 6187 26bf 052f 62bf 67e7 86be 884a c03d
00000030: cd07 3c3f a732 06be 6429 67be d238 4dbe
00000040: 430f 913e 1220 20be 10a4 e9be c2c1 09bf
00000050: 0170 fcbe f740 f73e 627f d93e a33f bcbe
00000060: 0a2e 573f 2707 273e a683 b8bd 1b6f 423e
00000070: af13 2abf db52 8cbe 2433 853e 1423 353e
00000080: cfcd 6cbf 56c7 dcbd fcbe 1cbe adf9 28be
00000090: 6113 ac3b 4eff 94be 8474 7bbd 0778 78be
000000a0: 6c35 133e 3972 ea3e e9b8 15be 72da e53e
000000b0: c253 efbe 0f33 c4bc b03c 3dbe 7ce0 01bd
000000c0: a607 303f 54c5 99be 727e e8be ad5d 463f
000000d0: 7785 96be 9908 443e 0ecc 07be c021 d13e
000000e0: 591e 793e 950c b0be 98c5 20bf 517c 8fbe
000000f0: 64d0 8b3f 6f18 823f 6b3d 0b3f 46c0 b8bd
00000100: 9aab 5b3d a404 4bbf c1a6 2b3e 6dc3 7b3e
00000110: 1f33 39bf 1eae f93e 4783 31be 2907 0bbf
00000120: bcb2 07bf 927a a43f a9ac 5fbd 832c babf
00000130: 22b7 773e 6eb5 20bc 7e63 663d 86ae 103f
00000140: f7ec 513e f636 543e 22de d1be 0fe8 173f
00000150: 4b45 b0be 79ad 18ba 9616 8fbf 46f3 413e
00000160: 8a33 803e c025 ef3e f881 333f a86f 0e3f
00000170: 5633 15bf d363 1f3f fa2e efbd 6568 7c3f
00000180: a41a 493d 1d8f 453e 4853 db3e 8034 fb3d
00000190: a458 14bf 1c42 5f3e 03b6 803e 3fa0 1c3f
000001a0: 5847 2f3f 9a2b ae3e bee8 69be 3edf 26bf
000001b0: 68ed 2abf 82e1 843e eedc 34bf 1757 433f
000001c0: 261d 9f3e c39d 3e3f ce49 983f 192c 2e3f
000001d0: 9e88 343f c3b5 a4bd ce37 0ebe abea 1e3f
000001e0: d3c3 a8bc 6339 8fbf 4372 debe 88b5 8ebe
000001f0: 0bf8 97be a9b0 74bf cfa7 88bd ff0d 533f
00000200: a76b 53bf 9c09 363f 5c4c 153e d8ff 6fbf
00000210: a0aa 4d3f a108 8ebf 1d6c 6dbf c58f 93be
00000220: 7a71 e73e 4ddb 03bf 55e8 a3be 0dea 4b3e
00000230: 204e 783c 6e8f 4fbf 3525 843f 8c2f d3bf
00000240: 48b1 fdbe 7f52 76bf 334f 1abe 2489 183f
00000250: 65fb 8d3e 8857 c9bc a598 b63e fc6a 5d3b
00000260: 56dd f0be 5e27 503f c759 3f3f 4798 cd3d
00000270: 5056 09bd a8ad 073e 0f82 213f 9e06 05be
00000280: 2df2 323f 7e56 393f ccfd 68bf 6d2d 013f
00000290: e3b7 74be 5217 b13f 0d69 483c 6291 883e
000002a0: 4c44 0dbd 91d3 b93e d2a1 053f 78b1 8a3f
000002b0: b6ad febe f6c1 a73e 96d9 e83d ec48 bdbe
000002c0: 4593 7cbf 3d80 8b3f fef6 a13f c0c7 78bf
000002d0: 7a35 853d 7fc1 1bbf 1c2e c03e 789a 4bbf
000002e0: 41b8 863e b2b7 50bf 92b3 183e 6dbd 23ba
000002f0: f79c fe3e fdef d3be 2ea4 91bf 8b25 143e
00000300: 4d01 80bf b9d7 59be 867f 45bf 54c9 503e
00000310: f57f 053e 1de7 db3e 8a89 0f3f ead1 c43e
00000320: ebb8 4ebf c20d 58be 7e41 393e cc74 233f
00000330: 12c2 41be 2aae aabe 7a7e 54bf 2e7b c6be
00000340: 7dc9 563f 4690 193f 471d dcbe 2e8c c4bd
00000350: 5d5c 3fbf d88b d03e 9da6 2a3e 1a19 7abe
00000360: 97b5 db3e 0586 9d3e db1b 173f 8ea7 393f
00000370: dded 47be ba61 03bf 8cf9 96be f77f 72bf
00000380: 9692 2c3f 2651 d2be 95af 3d3f bef5 76bf
00000390: 6955 86be 1dd8 d3bd d7d0 25bf 3218 cb3d
000003a0: ea0d afbe 6e5d c53b 0a78 d53e 9f07 10bf
000003b0: f512 46be 81b2 393f da80 663f 041c 423f
000003c0: 5b1a 12bd 8849 e5be 6df2 0bbf 5e42 8c3e
000003d0: 156c f8bd 8d0c 51be 71d6 1dbe 1191 753f
000003e0: 6ee9 223f 2a9a 013f 1524 44bf befa 8bbf
000003f0: 3a5a ce3e 30ee e33e 70f5 473f 12df 38bd
0.72121644 -0.9945936 -0.40751237 0.2626014 0.26132306 -0.650974 0.104551345 0.8378679
-0.6505032 -0.88352996 -0.2634842 0.09389216 0.73449403 -0.1310526 -0.22574383 -0.20041206
0.28331956 -0.15637234 -0.45632982 -0.53811276 -0.49304202 0.48291752 0.42479998 -0.367673
0.84054625 0.16311322 -0.09009485 0.18987696 -0.66436285 -0.27406964 0.2601558 0.17689162
-0.9250154 -0.10780208 -0.1530723 -0.16501494 0.0052513336 -0.29101032 -0.061390415 -0.24264537
0.14375848 0.4579027 -0.14621319 0.44893223 -0.4674359 -0.023950128 -0.18480182 -0.031708226
0.6876167 -0.30033362 -0.4540897 0.7748669 -0.293987 0.19143905 -0.13261434 0.40846062
0.24327983 -0.343846 -0.62801504 -0.28024533 1.0922971 1.0163707 0.5439059 -0.09021048
0.05363045 -0.79303956 0.1676283 0.24586268 -0.7234363 0.48765653 -0.17335235 -0.543078
-0.530071 1.2849905 -0.05460802 -1.4544834 0.24190953 -0.009808881 0.056247227 0.565163
0.20500551 0.20724091 -0.40989786 0.5933847 -0.34427866 -0.0005824189 -1.1178768 0.18940458
0.2503932 0.46708488 0.7012019 0.55639124 -0.5828146 0.62261695 -0.11678882 0.98596793
0.049097672 0.19292875 0.42836976 0.12265873 -0.57947755 0.21802562 0.25138864 0.61182016
0.68468237 0.3401764 -0.2284269 -0.6518439 -0.66768503 0.259533 -0.7064961 0.76304764
0.31076926 0.74459475 1.1897523 0.6803604 0.7052096 -0.08042481 -0.13888475 0.62076825
-0.020601189 -1.1189388 -0.4344655 -0.27872872 -0.2968143 -0.9558206 -0.06672632 0.8244323
-0.8258614 0.7110841 0.1457991 -0.9374976 0.8033848 -1.1096383 -0.9274309 -0.28820625
0.45203763 -0.515065 -0.32013193 0.19913502 0.015155345 -0.8107823 1.0323855 -1.6498885
-0.49549317 -0.9621963 -0.15069275 0.5958426 0.2773086 -0.024577871 0.35663334 0.0033785691
-0.47043866 0.8131007 0.74746364 0.1003881 -0.03352958 0.13249838 0.6308908 -0.12990806
0.6990078 0.723976 -0.91012263 0.5045994 -0.23898272 1.3835242 0.012232077 0.26673418
-0.03448896 0.36294225 0.52200043 1.0835409 -0.49741906 0.32765168 0.11369626 -0.36969697
-0.98662215 1.089851 1.2653501 -0.97179794 0.065043405 -0.60842127 0.3753518 -0.79532576
0.2631245 -0.81530297 0.1491225 -0.0006246183 0.4972913 -0.41394034 -1.1378229 0.14467447
-1.0000397 -0.21273698 -0.7714771 0.203893 0.13037093 0.42949763 0.5606924 0.38441402
-0.8075091 -0.21098998 0.1809139 0.6385009 -0.18921688 -0.33336002 -0.8300549 -0.38765854
0.83901197 0.5998577 -0.42991087 -0.0959705 -0.7475031 0.40731692 0.1666512 -0.24423638
0.4291198 0.3076631 0.5902688 0.72521293 -0.19524331 -0.51320994 -0.29487264 -0.9472651
0.6741117 -0.41077536 0.7409604 -0.9646872 -0.26237038 -0.10343955 -0.6477179 0.09916724
-0.34190303 0.0060231006 0.41693145 -0.5626163 -0.19343169 0.72538 0.9004036 0.75824
-0.035669666 -0.44782662 -0.5466679 0.27394384 -0.1212999 -0.20414944 -0.15413834 0.9592448
0.63637435 0.5062586 -0.76617557 -1.0935895 0.40303212 0.4451766 0.7810888 -0.04513461

linear2.bias f4 [10]
00000000: d722 e6be b363 c13d 5ddf 52be 0606 a5be
00000010: 4b05 a13e 9b31 d03e 675f 19be aaab 893d
00000020: 5d9d 953e 62ed 303d
-0.44948456 0.09442844 -0.20593019 -0.32231158 0.3144935 0.40662846 -0.149778 0.067221954
0.2922162 0.043195136
